Model: "autoencoder"
_________________________________________________________________
Layer (type)                 Output Shape              Param #   
=================================================================
input_1 (InputLayer)         [(None, 400, 40)]         0         
_________________________________________________________________
dense (Dense)                (None, 400, 40)           1640      
_________________________________________________________________
dense_1 (Dense)              (None, 400, 20)           820       
_________________________________________________________________
dense_2 (Dense)              (None, 400, 10)           210       
_________________________________________________________________
dense_3 (Dense)              (None, 400, 5)            55        
_________________________________________________________________
flatten (Flatten)            (None, 2000)              0         
_________________________________________________________________
dense_4 (Dense)              (None, 500)               1000500   
_________________________________________________________________
dense_5 (Dense)              (None, 100)               50100     
_________________________________________________________________
embeddings (Dense)           (None, 50)                5050      
_________________________________________________________________
dense_6 (Dense)              (None, 100)               5100      
_________________________________________________________________
dense_7 (Dense)              (None, 500)               50500     
_________________________________________________________________
dense_8 (Dense)              (None, 2000)              1002000   
_________________________________________________________________
reshape (Reshape)            (None, 400, 5)            0         
_________________________________________________________________
dense_9 (Dense)              (None, 400, 5)            30        
_________________________________________________________________
dense_10 (Dense)             (None, 400, 10)           60        
_________________________________________________________________
dense_11 (Dense)             (None, 400, 20)           220       
_________________________________________________________________
dense_12 (Dense)             (None, 400, 40)           840       
_________________________________________________________________
dense_13 (Dense)             (None, 400, 40)           1640      
_________________________________________________________________
reshape_1 (Reshape)          (None, 400, 40)           0         
=================================================================
Total params: 2,118,765
Trainable params: 2,118,765
Non-trainable params: 0
_________________________________________________________________
['en', 'cn']
The average loss for epoch 0 is  24.251
The average loss for epoch 1 is  23.261
The average loss for epoch 2 is  22.831
The average loss for epoch 3 is  21.949
The average loss for epoch 4 is  21.023
…
