Model: "autoencoder"
_________________________________________________________________
Layer (type)                 Output Shape              Param #   
=================================================================
input_1 (InputLayer)         [(None, 400, 40, 1)]      0         
_________________________________________________________________
dropout (Dropout)            (None, 400, 40, 1)        0         
_________________________________________________________________
conv2d (Conv2D)              (None, 400, 40, 32)       160       
_________________________________________________________________
max_pooling2d (MaxPooling2D) (None, 200, 20, 32)       0         
_________________________________________________________________
conv2d_1 (Conv2D)            (None, 200, 20, 64)       8256      
_________________________________________________________________
max_pooling2d_1 (MaxPooling2 (None, 100, 10, 64)       0         
_________________________________________________________________
conv2d_2 (Conv2D)            (None, 100, 10, 128)      32896     
_________________________________________________________________
conv2d_3 (Conv2D)            (None, 100, 10, 256)      131328    
_________________________________________________________________
max_pooling2d_2 (MaxPooling2 (None, 50, 5, 256)        0         
_________________________________________________________________
flatten (Flatten)            (None, 64000)             0         
_________________________________________________________________
embeddings (Dense)           (None, 2000)              128002000 
_________________________________________________________________
dense (Dense)                (None, 64000)             128064000 
_________________________________________________________________
reshape (Reshape)            (None, 50, 5, 256)        0         
_________________________________________________________________
conv2d_4 (Conv2D)            (None, 50, 5, 256)        262400    
_________________________________________________________________
up_sampling2d (UpSampling2D) (None, 100, 10, 256)      0         
_________________________________________________________________
dropout_1 (Dropout)          (None, 100, 10, 256)      0         
_________________________________________________________________
conv2d_5 (Conv2D)            (None, 100, 10, 128)      131200    
_________________________________________________________________
up_sampling2d_1 (UpSampling2 (None, 200, 20, 128)      0         
_________________________________________________________________
conv2d_6 (Conv2D)            (None, 200, 20, 64)       32832     
_________________________________________________________________
up_sampling2d_2 (UpSampling2 (None, 400, 40, 64)       0         
_________________________________________________________________
conv2d_7 (Conv2D)            (None, 400, 40, 32)       8224      
_________________________________________________________________
conv2d_8 (Conv2D)            (None, 400, 40, 1)        129       
=================================================================
Total params: 256,673,425
Trainable params: 256,673,425
Non-trainable params: 0
_________________________________________________________________
The average loss for epoch 0 is   20.22
The average loss for epoch 1 is  359.90
The average loss for epoch 2 is   52.44
The average loss for epoch 3 is  116.75
The average loss for epoch 4 is   44.14
…
