Model: "autoencoder"
_________________________________________________________________
Layer (type)                 Output Shape              Param #   
=================================================================
input_1 (InputLayer)         [(None, 400, 100, 1)]     0         
_________________________________________________________________
flatten (Flatten)            (None, 40000)             0         
_________________________________________________________________
dropout (Dropout)            (None, 40000)             0         
_________________________________________________________________
dense (Dense)                (None, 500)               20000500  
_________________________________________________________________
dense_1 (Dense)              (None, 500)               250500    
_________________________________________________________________
dense_2 (Dense)              (None, 2000)              1002000   
_________________________________________________________________
dense_3 (Dense)              (None, 100)               200100    
_________________________________________________________________
feature_layers (Dense)       (None, 50)                5050      
_________________________________________________________________
dropout_1 (Dropout)          (None, 50)                0         
_________________________________________________________________
dense_4 (Dense)              (None, 100)               5100      
_________________________________________________________________
dense_5 (Dense)              (None, 2000)              202000    
_________________________________________________________________
dense_6 (Dense)              (None, 500)               1000500   
_________________________________________________________________
dense_7 (Dense)              (None, 500)               250500    
_________________________________________________________________
dense_8 (Dense)              (None, 40000)             20040000  
_________________________________________________________________
reshape (Reshape)            (None, 400, 100, 1)       0         
=================================================================
Total params: 42,956,250
Trainable params: 42,956,250
Non-trainable params: 0
_________________________________________________________________
The average loss for epoch 0 is   22.16
The average loss for epoch 1 is   10.77
The average loss for epoch 2 is 2172.46
The average loss for epoch 3 is    8.28
The average loss for epoch 4 is   20.23
…
