Model: "autoencoder"
_________________________________________________________________
Layer (type)                 Output Shape              Param #   
=================================================================
input_1 (InputLayer)         [(None, 400, 40, 1)]      0         
_________________________________________________________________
dropout (Dropout)            (None, 400, 40, 1)        0         
_________________________________________________________________
conv2d (Conv2D)              (None, 400, 40, 32)       320       
_________________________________________________________________
max_pooling2d (MaxPooling2D) (None, 200, 20, 32)       0         
_________________________________________________________________
conv2d_1 (Conv2D)            (None, 200, 20, 64)       18496     
_________________________________________________________________
max_pooling2d_1 (MaxPooling2 (None, 100, 10, 64)       0         
_________________________________________________________________
conv2d_2 (Conv2D)            (None, 100, 10, 128)      73856     
_________________________________________________________________
conv2d_3 (Conv2D)            (None, 100, 10, 256)      295168    
_________________________________________________________________
max_pooling2d_2 (MaxPooling2 (None, 10, 10, 256)       0         
_________________________________________________________________
flatten (Flatten)            (None, 25600)             0         
_________________________________________________________________
embeddings (Dense)           (None, 2000)              51202000  
_________________________________________________________________
dense (Dense)                (None, 25600)             51225600  
_________________________________________________________________
reshape (Reshape)            (None, 10, 10, 256)       0         
_________________________________________________________________
conv2d_4 (Conv2D)            (None, 10, 10, 256)       590080    
_________________________________________________________________
up_sampling2d (UpSampling2D) (None, 100, 10, 256)      0         
_________________________________________________________________
dropout_1 (Dropout)          (None, 100, 10, 256)      0         
_________________________________________________________________
conv2d_5 (Conv2D)            (None, 100, 10, 128)      295040    
_________________________________________________________________
up_sampling2d_1 (UpSampling2 (None, 200, 20, 128)      0         
_________________________________________________________________
conv2d_6 (Conv2D)            (None, 200, 20, 64)       73792     
_________________________________________________________________
up_sampling2d_2 (UpSampling2 (None, 400, 40, 64)       0         
_________________________________________________________________
conv2d_7 (Conv2D)            (None, 400, 40, 32)       18464     
_________________________________________________________________
conv2d_8 (Conv2D)            (None, 400, 40, 1)        289       
=================================================================
Total params: 103,793,105
Trainable params: 103,793,105
Non-trainable params: 0
_________________________________________________________________
The average loss for epoch 0 is   21.07
The average loss for epoch 1 is   13.93
The average loss for epoch 2 is 16138.72
The average loss for epoch 3 is    6.26
The average loss for epoch 4 is   14.16
…
