Model: "autoencoder"
_________________________________________________________________
Layer (type)                 Output Shape              Param #   
=================================================================
input_1 (InputLayer)         [(None, 400, 40, 1)]      0         
_________________________________________________________________
flatten (Flatten)            (None, 16000)             0         
_________________________________________________________________
dropout (Dropout)            (None, 16000)             0         
_________________________________________________________________
dense (Dense)                (None, 2000)              32002000  
_________________________________________________________________
dense_1 (Dense)              (None, 500)               1000500   
_________________________________________________________________
dense_2 (Dense)              (None, 500)               250500    
_________________________________________________________________
dense_3 (Dense)              (None, 100)               50100     
_________________________________________________________________
embeddings (Dense)           (None, 50)                5050      
_________________________________________________________________
dropout_1 (Dropout)          (None, 50)                0         
_________________________________________________________________
dense_4 (Dense)              (None, 100)               5100      
_________________________________________________________________
dense_5 (Dense)              (None, 500)               50500     
_________________________________________________________________
dense_6 (Dense)              (None, 500)               250500    
_________________________________________________________________
dense_7 (Dense)              (None, 2000)              1002000   
_________________________________________________________________
dense_8 (Dense)              (None, 16000)             32016000  
_________________________________________________________________
reshape (Reshape)            (None, 400, 40, 1)        0         
=================================================================
Total params: 66,632,250
Trainable params: 66,632,250
Non-trainable params: 0
_________________________________________________________________
The average loss for epoch 0 is   13.46
The average loss for epoch 1 is    8.40
The average loss for epoch 2 is    4.37
The average loss for epoch 3 is    3.60
The average loss for epoch 4 is    3.29
…
