Model: "autoencoder"
_________________________________________________________________
Layer (type)                 Output Shape              Param #   
=================================================================
input_1 (InputLayer)         [(None, 400, 100, 1)]     0         
_________________________________________________________________
dropout (Dropout)            (None, 400, 100, 1)       0         
_________________________________________________________________
conv2d (Conv2D)              (None, 400, 100, 16)      160       
_________________________________________________________________
max_pooling2d (MaxPooling2D) (None, 200, 50, 16)       0         
_________________________________________________________________
conv2d_1 (Conv2D)            (None, 200, 50, 32)       4640      
_________________________________________________________________
max_pooling2d_1 (MaxPooling2 (None, 100, 25, 32)       0         
_________________________________________________________________
conv2d_2 (Conv2D)            (None, 100, 25, 64)       18496     
_________________________________________________________________
features_layer (Conv2D)      (None, 100, 25, 1)        577       
_________________________________________________________________
dropout_1 (Dropout)          (None, 100, 25, 1)        0         
_________________________________________________________________
conv2d_3 (Conv2D)            (None, 100, 25, 64)       640       
_________________________________________________________________
up_sampling2d (UpSampling2D) (None, 200, 50, 64)       0         
_________________________________________________________________
conv2d_4 (Conv2D)            (None, 200, 50, 32)       18464     
_________________________________________________________________
up_sampling2d_1 (UpSampling2 (None, 400, 100, 32)      0         
_________________________________________________________________
conv2d_5 (Conv2D)            (None, 400, 100, 16)      4624      
_________________________________________________________________
conv2d_6 (Conv2D)            (None, 400, 100, 1)       145       
=================================================================
Total params: 47,746
Trainable params: 47,746
Non-trainable params: 0
_________________________________________________________________
