Model: "autoencoder"
_________________________________________________________________
Layer (type)                 Output Shape              Param #   
=================================================================
input_1 (InputLayer)         [(None, 400, 40, 1)]      0         
_________________________________________________________________
dropout (Dropout)            (None, 400, 40, 1)        0         
_________________________________________________________________
conv2d (Conv2D)              (None, 400, 40, 32)       320       
_________________________________________________________________
max_pooling2d (MaxPooling2D) (None, 200, 20, 32)       0         
_________________________________________________________________
conv2d_1 (Conv2D)            (None, 200, 20, 64)       18496     
_________________________________________________________________
max_pooling2d_1 (MaxPooling2 (None, 100, 10, 64)       0         
_________________________________________________________________
conv2d_2 (Conv2D)            (None, 100, 10, 128)      73856     
_________________________________________________________________
conv2d_3 (Conv2D)            (None, 100, 10, 256)      295168    
_________________________________________________________________
max_pooling2d_2 (MaxPooling2 (None, 50, 5, 256)        0         
_________________________________________________________________
flatten (Flatten)            (None, 64000)             0         
_________________________________________________________________
dense (Dense)                (None, 2000)              128002000 
_________________________________________________________________
embeddings (Dense)           (None, 100)               200100    
_________________________________________________________________
dense_1 (Dense)              (None, 2000)              202000    
_________________________________________________________________
dense_2 (Dense)              (None, 64000)             128064000 
_________________________________________________________________
reshape (Reshape)            (None, 50, 5, 256)        0         
_________________________________________________________________
conv2d_4 (Conv2D)            (None, 50, 5, 256)        590080    
_________________________________________________________________
up_sampling2d (UpSampling2D) (None, 100, 10, 256)      0         
_________________________________________________________________
dropout_1 (Dropout)          (None, 100, 10, 256)      0         
_________________________________________________________________
conv2d_5 (Conv2D)            (None, 100, 10, 128)      295040    
_________________________________________________________________
up_sampling2d_1 (UpSampling2 (None, 200, 20, 128)      0         
_________________________________________________________________
conv2d_6 (Conv2D)            (None, 200, 20, 64)       73792     
_________________________________________________________________
up_sampling2d_2 (UpSampling2 (None, 400, 40, 64)       0         
_________________________________________________________________
conv2d_7 (Conv2D)            (None, 400, 40, 32)       18464     
_________________________________________________________________
conv2d_8 (Conv2D)            (None, 400, 40, 1)        289       
=================================================================
Total params: 257,833,605
Trainable params: 257,833,605
Non-trainable params: 0
_________________________________________________________________
['en', 'de', 'cn', 'fr', 'ru']
The average loss for epoch 0 is  46.176
The average loss for epoch 1 is  34.379
The average loss for epoch 2 is  18.106
The average loss for epoch 3 is  20.695
…
