Model: "model"
_________________________________________________________________
Layer (type)                 Output Shape              Param #   
=================================================================
input_1 (InputLayer)         [(None, 400, 100, 1)]     0         
_________________________________________________________________
dropout (Dropout)            (None, 400, 100, 1)       0         
_________________________________________________________________
conv2d (Conv2D)              (None, 400, 100, 16)      160       
_________________________________________________________________
max_pooling2d (MaxPooling2D) (None, 200, 50, 16)       0         
_________________________________________________________________
conv2d_1 (Conv2D)            (None, 200, 50, 32)       4640      
_________________________________________________________________
max_pooling2d_1 (MaxPooling2 (None, 100, 25, 32)       0         
_________________________________________________________________
conv2d_2 (Conv2D)            (None, 100, 25, 64)       18496     
_________________________________________________________________
features_layer (Conv2D)      (None, 100, 25, 1)        577       
_________________________________________________________________
flattened_encoder_output (Fl (None, 2500)              0         
_________________________________________________________________
clustering (DECLayer)        (None, 5)                 12500     
=================================================================
Total params: 36,373
Trainable params: 36,373
Non-trainable params: 0
_________________________________________________________________
=======================ite: 0
Prediction results 
(pred_axis, truth_axis) 
[[ 7  1 20 10 52]
 [ 0  0 41  0  0]
 [ 3  1 15  0  0]
 [ 4 22 17  0  0]
 [86 76  7 90 48]]
True label en classified as 4, likelihood 0.86
…
