Model: "model"
_________________________________________________________________
Layer (type)                 Output Shape              Param #   
=================================================================
input_1 (InputLayer)         [(None, 400, 100, 1)]     0         
_________________________________________________________________
flatten (Flatten)            (None, 40000)             0         
_________________________________________________________________
dropout (Dropout)            (None, 40000)             0         
_________________________________________________________________
dense (Dense)                (None, 500)               20000500  
_________________________________________________________________
dense_1 (Dense)              (None, 500)               250500    
_________________________________________________________________
dense_2 (Dense)              (None, 2000)              1002000   
_________________________________________________________________
dense_3 (Dense)              (None, 100)               200100    
_________________________________________________________________
feature_layers (Dense)       (None, 50)                5050      
_________________________________________________________________
flattened_encoder_output (Fl (None, 50)                0         
_________________________________________________________________
clustering (DECLayer)        (None, 5)                 250       
=================================================================
Total params: 21,458,400
Trainable params: 21,458,400
Non-trainable params: 0
_________________________________________________________________
=======================ite: 0
Prediction results 
(pred_axis, truth_axis) 
[[54  4  0 93 48]
 [14  3 20  0  0]
 [ 1  2 53  0  6]
 [ 1  0 24  6 29]
 [30 91  3  1 17]]
True label en classified as 0, likelihood 0.54
…
