Model: "model"
_________________________________________________________________
Layer (type)                 Output Shape              Param #   
=================================================================
input_1 (InputLayer)         [(None, 400, 40, 1)]      0         
_________________________________________________________________
flatten (Flatten)            (None, 16000)             0         
_________________________________________________________________
dropout (Dropout)            (None, 16000)             0         
_________________________________________________________________
dense (Dense)                (None, 2000)              32002000  
_________________________________________________________________
dense_1 (Dense)              (None, 500)               1000500   
_________________________________________________________________
dense_2 (Dense)              (None, 500)               250500    
_________________________________________________________________
dense_3 (Dense)              (None, 100)               50100     
_________________________________________________________________
embeddings (Dense)           (None, 50)                5050      
_________________________________________________________________
flattened_encoder_output (Fl (None, 50)                0         
_________________________________________________________________
clustering (DECLayer)        (None, 5)                 250       
=================================================================
Total params: 33,308,400
Trainable params: 33,308,400
Non-trainable params: 0
_________________________________________________________________
Distances:
[[  0.       236.30919  118.120705 195.06447  169.93356 ]
 [236.30919    0.       244.71358  188.69353  324.77402 ]
 [118.120705 244.71358    0.       192.4549   193.99507 ]
…
