Model: "model"
_________________________________________________________________
Layer (type)                 Output Shape              Param #   
=================================================================
input_1 (InputLayer)         [(None, 400, 40, 1)]      0         
_________________________________________________________________
flatten (Flatten)            (None, 16000)             0         
_________________________________________________________________
dropout (Dropout)            (None, 16000)             0         
_________________________________________________________________
dense (Dense)                (None, 2000)              32002000  
_________________________________________________________________
dense_1 (Dense)              (None, 500)               1000500   
_________________________________________________________________
dense_2 (Dense)              (None, 500)               250500    
_________________________________________________________________
dense_3 (Dense)              (None, 100)               50100     
_________________________________________________________________
embeddings (Dense)           (None, 50)                5050      
_________________________________________________________________
flattened_encoder_output (Fl (None, 50)                0         
_________________________________________________________________
clustering (DECLayer)        (None, 5)                 250       
=================================================================
Total params: 33,308,400
Trainable params: 33,308,400
Non-trainable params: 0
_________________________________________________________________
=======================ite: 0
Distances:
[[  0.      239.1698  200.97484 189.99368 188.26689]
 [239.1698    0.      257.30768 155.66113 112.09071]
 [200.97484 257.30768   0.      217.6239  177.62596]
…
