Model: "model"
_________________________________________________________________
Layer (type)                 Output Shape              Param #   
=================================================================
input_1 (InputLayer)         [(None, 400, 100, 1)]     0         
_________________________________________________________________
flatten (Flatten)            (None, 40000)             0         
_________________________________________________________________
dropout (Dropout)            (None, 40000)             0         
_________________________________________________________________
dense (Dense)                (None, 500)               20000500  
_________________________________________________________________
dense_1 (Dense)              (None, 500)               250500    
_________________________________________________________________
dense_2 (Dense)              (None, 2000)              1002000   
_________________________________________________________________
dense_3 (Dense)              (None, 10)                20010     
_________________________________________________________________
flattened_encoder_output (Fl (None, 10)                0         
_________________________________________________________________
clustering (DECLayer)        (None, 5)                 50        
=================================================================
Total params: 21,273,060
Trainable params: 21,273,060
Non-trainable params: 0
_________________________________________________________________
=======================ite: 0
Prediction results:  
(pred_axis, truth_axis) 
: [[41  8  0 90 25]
 [ 3  2 72  0  3]
 [30 87  4  0  6]
 [17  0  0 10 66]
 [ 9  3 24  0  0]]
labelmap: [0 2 1 0 3]
…
