Model: "model"
_________________________________________________________________
Layer (type)                 Output Shape              Param #   
=================================================================
input_1 (InputLayer)         [(None, 400, 40, 1)]      0         
_________________________________________________________________
dropout (Dropout)            (None, 400, 40, 1)        0         
_________________________________________________________________
conv2d (Conv2D)              (None, 400, 40, 32)       160       
_________________________________________________________________
max_pooling2d (MaxPooling2D) (None, 200, 20, 32)       0         
_________________________________________________________________
conv2d_1 (Conv2D)            (None, 200, 20, 64)       8256      
_________________________________________________________________
max_pooling2d_1 (MaxPooling2 (None, 100, 10, 64)       0         
_________________________________________________________________
conv2d_2 (Conv2D)            (None, 100, 10, 128)      32896     
_________________________________________________________________
conv2d_3 (Conv2D)            (None, 100, 10, 256)      131328    
_________________________________________________________________
max_pooling2d_2 (MaxPooling2 (None, 50, 5, 256)        0         
_________________________________________________________________
flatten (Flatten)            (None, 64000)             0         
_________________________________________________________________
embeddings (Dense)           (None, 2000)              128002000 
_________________________________________________________________
flattened_encoder_output (Fl (None, 2000)              0         
_________________________________________________________________
clustering (DECLayer)        (None, 5)                 10000     
=================================================================
Total params: 128,184,640
Trainable params: 128,184,640
Non-trainable params: 0
_________________________________________________________________
=======================ite: 0
Distances:
[[  0.        92.63782   90.46323  121.06401  166.94998 ]
 [ 92.63782    0.        68.408585  78.774254 122.42033 ]
 [ 90.46323   68.408585   0.        81.64218  127.296486]
…
