Model: "model"
_________________________________________________________________
Layer (type)                 Output Shape              Param #   
=================================================================
input_1 (InputLayer)         [(None, 400, 40, 1)]      0         
_________________________________________________________________
dropout (Dropout)            (None, 400, 40, 1)        0         
_________________________________________________________________
conv2d (Conv2D)              (None, 400, 40, 32)       320       
_________________________________________________________________
max_pooling2d (MaxPooling2D) (None, 200, 20, 32)       0         
_________________________________________________________________
conv2d_1 (Conv2D)            (None, 200, 20, 64)       18496     
_________________________________________________________________
max_pooling2d_1 (MaxPooling2 (None, 100, 10, 64)       0         
_________________________________________________________________
conv2d_2 (Conv2D)            (None, 100, 10, 128)      73856     
_________________________________________________________________
conv2d_3 (Conv2D)            (None, 100, 10, 256)      295168    
_________________________________________________________________
max_pooling2d_2 (MaxPooling2 (None, 10, 10, 256)       0         
_________________________________________________________________
flatten (Flatten)            (None, 25600)             0         
_________________________________________________________________
embeddings (Dense)           (None, 2000)              51202000  
_________________________________________________________________
flattened_encoder_output (Fl (None, 2000)              0         
_________________________________________________________________
clustering (DECLayer)        (None, 5)                 10000     
=================================================================
Total params: 51,599,840
Trainable params: 51,599,840
Non-trainable params: 0
_________________________________________________________________
=======================ite: 0
Distances:
[[ 0.       27.806622 14.585036 14.244879 21.01446 ]
 [27.806622  0.       20.805141 32.11789  40.113598]
 [14.585036 20.805141  0.       17.745111 25.32901 ]
…
