Model: "model"
_________________________________________________________________
Layer (type)                 Output Shape              Param #   
=================================================================
input_1 (InputLayer)         [(None, 400, 40, 1)]      0         
_________________________________________________________________
dropout (Dropout)            (None, 400, 40, 1)        0         
_________________________________________________________________
conv2d (Conv2D)              (None, 400, 40, 32)       320       
_________________________________________________________________
max_pooling2d (MaxPooling2D) (None, 200, 20, 32)       0         
_________________________________________________________________
conv2d_1 (Conv2D)            (None, 200, 20, 64)       18496     
_________________________________________________________________
max_pooling2d_1 (MaxPooling2 (None, 100, 10, 64)       0         
_________________________________________________________________
conv2d_2 (Conv2D)            (None, 100, 10, 128)      73856     
_________________________________________________________________
conv2d_3 (Conv2D)            (None, 100, 10, 256)      295168    
_________________________________________________________________
max_pooling2d_2 (MaxPooling2 (None, 50, 5, 256)        0         
_________________________________________________________________
flatten (Flatten)            (None, 64000)             0         
_________________________________________________________________
dense (Dense)                (None, 2000)              128002000 
_________________________________________________________________
embeddings (Dense)           (None, 500)               1000500   
_________________________________________________________________
flattened_encoder_output (Fl (None, 500)               0         
_________________________________________________________________
clustering (DECLayer)        (None, 5)                 2500      
=================================================================
Total params: 129,392,840
Trainable params: 129,392,840
Non-trainable params: 0
_________________________________________________________________
=======================ite: 0
Distances:
[[0.         1.8712597  0.7853669  2.4895198  1.3179942 ]
 [1.8712597  0.         1.0995661  0.63287306 0.5609973 ]
 [0.7853669  1.0995661  0.         1.726878   0.5403714 ]
…
