Model: "model"
_________________________________________________________________
Layer (type)                 Output Shape              Param #   
=================================================================
input_1 (InputLayer)         [(None, 400, 100, 1)]     0         
_________________________________________________________________
flatten (Flatten)            (None, 40000)             0         
_________________________________________________________________
dropout (Dropout)            (None, 40000)             0         
_________________________________________________________________
dense (Dense)                (None, 500)               20000500  
_________________________________________________________________
dense_1 (Dense)              (None, 500)               250500    
_________________________________________________________________
dense_2 (Dense)              (None, 2000)              1002000   
_________________________________________________________________
dense_3 (Dense)              (None, 100)               200100    
_________________________________________________________________
flattened_encoder_output (Fl (None, 100)               0         
_________________________________________________________________
clustering (DECLayer)        (None, 5)                 500       
=================================================================
Total params: 21,453,600
Trainable params: 21,453,600
Non-trainable params: 0
_________________________________________________________________
=======================ite: 0
Prediction results 
(pred_axis, truth_axis) 
[[14 23  0 90 22]
 [ 3  2 73  0 10]
 [17 71  0  0  1]
 [57  1  1 10 67]
 [ 9  3 26  0  0]]
True label en classified as 3, likelihood 0.57
…
