Model: "model"
_________________________________________________________________
Layer (type)                 Output Shape              Param #   
=================================================================
input_1 (InputLayer)         [(None, 400, 100, 1)]     0         
_________________________________________________________________
flatten (Flatten)            (None, 40000)             0         
_________________________________________________________________
dropout (Dropout)            (None, 40000)             0         
_________________________________________________________________
dense (Dense)                (None, 500)               20000500  
_________________________________________________________________
dense_1 (Dense)              (None, 500)               250500    
_________________________________________________________________
dense_2 (Dense)              (None, 500)               250500    
_________________________________________________________________
dense_3 (Dense)              (None, 2000)              1002000   
_________________________________________________________________
feature_layers (Dense)       (None, 100)               200100    
_________________________________________________________________
flattened_encoder_output (Fl (None, 100)               0         
_________________________________________________________________
clustering (DECLayer)        (None, 5)                 500       
=================================================================
Total params: 21,704,100
Trainable params: 21,704,100
Non-trainable params: 0
_________________________________________________________________
=======================ite: 0
Prediction results 
(pred_axis, truth_axis) 
[[26 80  2  0 13]
 [20  0  4 10 57]
 [ 1  0 69  0  5]
 [11  3 25  0  0]
 [42 17  0 90 25]]
True label en classified as 4, likelihood 0.42
…
