Model: "model"
_________________________________________________________________
Layer (type)                 Output Shape              Param #   
=================================================================
input_1 (InputLayer)         [(None, 400, 40)]         0         
_________________________________________________________________
dense (Dense)                (None, 400, 40)           1640      
_________________________________________________________________
dense_1 (Dense)              (None, 400, 20)           820       
_________________________________________________________________
dense_2 (Dense)              (None, 400, 10)           210       
_________________________________________________________________
embeddings (Dense)           (None, 400, 5)            55        
_________________________________________________________________
flattened_encoder_output (Fl (None, 2000)              0         
_________________________________________________________________
clustering (DECLayer)        (None, 2)                 4000      
=================================================================
Total params: 6,725
Trainable params: 6,725
Non-trainable params: 0
_________________________________________________________________
================================================ite: 0
Distances:
[[  0.      151.18582]
 [151.18582   0.     ]]
loss: : 0.04869306832551956
Prediction on train set: : 
(pred_axis, truth_axis) 
…
