Model: "model"
_________________________________________________________________
Layer (type)                 Output Shape              Param #   
=================================================================
input_1 (InputLayer)         [(None, 400, 40, 1)]      0         
_________________________________________________________________
dropout (Dropout)            (None, 400, 40, 1)        0         
_________________________________________________________________
conv2d (Conv2D)              (None, 400, 40, 32)       320       
_________________________________________________________________
max_pooling2d (MaxPooling2D) (None, 200, 20, 32)       0         
_________________________________________________________________
conv2d_1 (Conv2D)            (None, 200, 20, 64)       18496     
_________________________________________________________________
max_pooling2d_1 (MaxPooling2 (None, 100, 10, 64)       0         
_________________________________________________________________
conv2d_2 (Conv2D)            (None, 100, 10, 128)      73856     
_________________________________________________________________
conv2d_3 (Conv2D)            (None, 100, 10, 256)      295168    
_________________________________________________________________
max_pooling2d_2 (MaxPooling2 (None, 50, 5, 256)        0         
_________________________________________________________________
flatten (Flatten)            (None, 64000)             0         
_________________________________________________________________
dense (Dense)                (None, 2000)              128002000 
_________________________________________________________________
embeddings (Dense)           (None, 100)               200100    
_________________________________________________________________
flattened_encoder_output (Fl (None, 100)               0         
_________________________________________________________________
clustering (DECLayer)        (None, 2)                 200       
=================================================================
Total params: 128,590,140
Trainable params: 128,590,140
Non-trainable params: 0
_________________________________________________________________
=======================ite: 0
Distances:
[[0.        2.8556764]
 [2.8556764 0.       ]]
loss: : 0.06462700664997101
Prediction results 
(pred_axis, truth_axis) 
[[92  5]
 [ 8 95]]
True label en classified as 0, likelihood 0.92
…
