Model: "model"
_________________________________________________________________
Layer (type)                 Output Shape              Param #   
=================================================================
input_1 (InputLayer)         [(None, 400, 40)]         0         
_________________________________________________________________
dense (Dense)                (None, 400, 40)           1640      
_________________________________________________________________
dense_1 (Dense)              (None, 400, 20)           820       
_________________________________________________________________
dense_2 (Dense)              (None, 400, 10)           210       
_________________________________________________________________
dense_3 (Dense)              (None, 400, 5)            55        
_________________________________________________________________
flatten (Flatten)            (None, 2000)              0         
_________________________________________________________________
dense_4 (Dense)              (None, 500)               1000500   
_________________________________________________________________
dense_5 (Dense)              (None, 100)               50100     
_________________________________________________________________
embeddings (Dense)           (None, 50)                5050      
_________________________________________________________________
flattened_encoder_output (Fl (None, 50)                0         
_________________________________________________________________
clustering (DECLayer)        (None, 3)                 150       
=================================================================
Total params: 1,058,525
Trainable params: 1,058,525
Non-trainable params: 0
_________________________________________________________________
================================================ite: 0
Distances:
[[ 0.         7.3608093 26.558487 ]
 [ 7.3608093  0.        26.310282 ]
 [26.558487  26.310282   0.       ]]
loss: : 0.014600918628275394
…
