Model: "model"
_________________________________________________________________
Layer (type)                 Output Shape              Param #   
=================================================================
input_1 (InputLayer)         [(None, 400, 100, 1)]     0         
_________________________________________________________________
dropout (Dropout)            (None, 400, 100, 1)       0         
_________________________________________________________________
conv2d (Conv2D)              (None, 400, 100, 32)      320       
_________________________________________________________________
max_pooling2d (MaxPooling2D) (None, 200, 50, 32)       0         
_________________________________________________________________
conv2d_1 (Conv2D)            (None, 200, 50, 64)       18496     
_________________________________________________________________
max_pooling2d_1 (MaxPooling2 (None, 100, 25, 64)       0         
_________________________________________________________________
conv2d_2 (Conv2D)            (None, 100, 25, 128)      73856     
_________________________________________________________________
features_layer (Conv2D)      (None, 100, 25, 1)        1153      
_________________________________________________________________
flattened_encoder_output (Fl (None, 2500)              0         
_________________________________________________________________
clustering (DECLayer)        (None, 5)                 12500     
=================================================================
Total params: 106,325
Trainable params: 106,325
Non-trainable params: 0
_________________________________________________________________
=======================ite: 0
Prediction results 
(pred_axis, truth_axis) 
[[93 80 14 90 57]
 [ 3  1 16  0  0]
 [ 0  0 34  0  0]
 [ 3 17 15  0  0]
 [ 1  2 21 10 43]]
True label en classified as 0, likelihood 0.93
…
