Model: "functional_1"
_________________________________________________________________
Layer (type)                 Output Shape              Param #   
=================================================================
input_1 (InputLayer)         [(None, 400, 40)]         0         
_________________________________________________________________
dense (Dense)                (None, 400, 40)           1640      
_________________________________________________________________
dense_1 (Dense)              (None, 400, 20)           820       
_________________________________________________________________
dense_2 (Dense)              (None, 400, 10)           210       
_________________________________________________________________
dense_3 (Dense)              (None, 400, 5)            55        
_________________________________________________________________
flatten (Flatten)            (None, 2000)              0         
_________________________________________________________________
dense_4 (Dense)              (None, 500)               1000500   
_________________________________________________________________
embeddings (Dense)           (None, 100)               50100     
_________________________________________________________________
flattened_encoder_output (Fl (None, 100)               0         
_________________________________________________________________
clustering (MDECLayer)       (None, 2)                 20200     
=================================================================
Total params: 1,073,525
Trainable params: 1,073,525
Non-trainable params: 0
_________________________________________________________________
================================================ite: 0
Distances:
[[ 0.       34.461376]
 [34.461376  0.      ]]
loss: : 0.04984251409769058
Prediction on train set: : 
(pred_axis, truth_axis) 
…
